assignment_2/part3/model.pt (torch_old, 839961 bytes, 10 tensors)

lstm.weight_ih_l0 f4 [512, 1]
000000 94 80 0c 3f 78 95 db 3d 99 a8 17 3f 3c ee eb bd
       0.54883695 0.10721868 0.59241635 -0.11520049
000010 56 cc 33 3f be e5 3c 3f 4d 1a 50 be 5c 01 26 ba
       0.70233667 0.7378806 -0.20322533 -0.00063326
000020 d9 a8 0d be 4c bb 1c 3f de b6 8c 3e fe c8 1d 3e
       -0.13833942 0.6122329 0.27483267 0.15408704
000030 1e 15 35 3e 66 f8 75 be 34 70 54 3f d8 c6 4a bf
       0.17683837 -0.24020538 0.8298371 -0.7920966
000040 8a 13 62 3f ef 06 3b 3f 33 07 f7 3d 56 de 29 bd
       0.88311064 0.73057455 0.1206192 -0.0414718
000050 79 06 20 3e b6 0c 4a be 24 af 2f 3f d5 17 dd 3e
       0.15627469 -0.19731411 0.6862662 0.43182245
000060 34 81 e6 be e1 14 33 bf 8e f1 d2 3e 48 e8 fa ba
       -0.4502045 -0.69953734 0.41199917 -0.0019142712
000070 ae 20 96 3f 2e 17 92 bf 76 b8 16 be 06 3c 1a be
       1.1728723 -1.1413324 -0.14718804 -0.1506196
000080 98 92 f3 3e 11 82 1b 3f c6 bf b2 3e ed 0f e3 3e
       0.4757278 0.6074534 0.34911937 0.44348088
000090 e3 4c 2a be aa 63 a4 3e 55 ae 6f 3e 8c 79 81 bf
       -0.16630892 0.32107288 0.23406346 -1.0115218
0000a0 7c 5c c6 3d d0 4c 9b 3e 23 63 d6 3e 0c 4f ab 3f
       0.09685609 0.3033204 0.4187251 1.3383498
0000b0 52 10 3f 3e f8 a2 34 3e f6 29 f1 3e 32 ea 53 be
       0.1865857 0.17640293 0.47102326 -0.20694807
0000c0 0a bd fc 3e df 8f 6e 3e 3b 60 9a bd b4 da 8b bf
       0.49362975 0.2329707 -0.07537886 -1.0926118
0000d0 8f 85 80 3e 58 ce 81 3e 8e 82 b3 3d 94 6c 16 3f
       0.25101897 0.2535274 0.08765136 0.5875943
0000e0 86 d9 87 3e 47 6b 1d 3f 32 64 06 be 68 30 d9 bd
       0.26533145 0.6149182 -0.13124159 -0.10604936
0000f0 5b d8 26 bf df a5 29 3e d5 df 76 be 32 47 37 be
       -0.6517388 0.16567181 -0.24108823 -0.17898253
000100 12 8d 3f bf 99 d7 b3 3e 0b 51 01 3f f7 64 29 3e
       -0.7482463 0.35125425 0.50514287 0.16542421
000110 16 5e d1 bf cd 88 8d 3e 71 b9 7d 3f 29 b6 9b 3e
       -1.6356838 0.27643433 0.99111086 0.30412415
000120 20 87 1f 3f ae a5 e0 3d ea ab 1f bf 1e 78 05 3f
       0.6231556 0.10969101 -0.62371695 0.5213641
000130 e7 fc f1 bf ec 8a 1c be e8 44 d7 3e 6f 76 ef 3e
       -1.8905305 -0.1528737 0.4204476 0.46770045
000140 a8 c6 9a 3e f5 5b 99 be 15 65 41 3f 95 db 76 bd
       0.30229688 -0.2995297 0.75544864 -0.060268003
000150 87 d3 db 3d 8c e1 66 bf 1a de e0 bd b1 89 d8 3b
       0.10733705 -0.9018791 -0.109798625 0.006608211
000160 43 68 5e bf ba 2b 46 3e 49 8c b4 be 2b 29 ab be
       -0.8687784 0.19352618 -0.3526328 -0.33429846
000170 20 8b 1f 3f 1d 4f b4 3c f1 c7 70 3f 30 ac 29 3f
       0.6232166 0.02201038 0.94055086 0.6627836
000180 61 f1 5b bd ca 9b 2c 3f eb 01 70 3e 04 2b 8a 3d
       -0.053696994 0.67425215 0.23438232 0.06746486
000190 5e ca 87 3e 31 9f b3 3e e0 99 05 bf 98 b8 e5 3e
       0.2652158 0.3508239 -0.5218792 0.44867396
0001a0 9c 94 e4 be 89 28 ff bd 7a e4 80 bf dd bd 89 3e
       -0.4464463 -0.12458903 -1.0069726 0.26902667
0001b0 79 46 ad be 05 c1 9c 3f 8e 69 06 3f c2 80 0c bf
       -0.3384283 1.2246405 0.52504814 -0.5488397
0001c0 3b c9 e3 3e cc fd b2 3e 5d 20 11 be 43 04 61 be
       0.44489464 0.34959257 -0.14172502 -0.21974282
0001d0 bc 3b 36 3f 3d e8 07 3f 98 e7 46 bf 80 15 f0 3e
       0.711849 0.5308874 -0.77697134 0.46891403
0001e0 31 e7 f1 bd 0b be b6 3d cc f2 32 3d a9 93 1a 3f
       -0.118116744 0.089229666 0.04368858 0.6038156
0001f0 7b 36 58 bf 94 f5 d7 bf 20 e6 73 3d 82 fd 0e 3f
       -0.8445813 -1.687182 0.059545636 0.5585557
000200 8d 5b d5 be 1d 1b b9 3e 7b 05 16 3f 44 cc 56 be
       -0.4167141 0.36153498 0.5860211 -0.20976359
000210 04 f8 0c bf 2a 4c ad be 12 88 ef be 66 8a b7 bf
       -0.5506594 -0.3384717 -0.467835 -1.4339111
000220 14 e7 9c bd 59 d4 de 3e 9b 2a 01 3f d8 a9 dc be
       -0.07661262 0.43521383 0.50455636 -0.4309833
000230 3b ca de 3e 64 e0 12 3f dc db 11 3f d8 f8 aa bf
       0.43513665 0.5737364 0.56976104 -1.3357191
000240 92 52 ab 3d 50 de ab 3f 13 f7 b2 3d 8b c6 36 bf
       0.083653584 1.3427219 0.08738532 -0.713967
000250 c2 8b 2b 3d 35 94 47 3e f0 ff 09 3e 94 ce 8a 3d
       0.04188133 0.1949013 0.13476539 0.06777683
000260 5b d2 5c bf 57 88 21 bf 9e bb e2 be c0 5b 1b bf
       -0.86258477 -0.63098663 -0.44283766 -0.60686874
000270 58 7f 62 bc d2 12 72 bf e5 35 97 3d 2f 52 cf 3d
       -0.013824306 -0.9455997 0.073833264 0.10123097
000280 87 d5 00 3f 04 59 01 bf 91 89 06 bf 18 eb 92 3e
       0.50325817 -0.5052645 -0.5255366 0.28694987
000290 6b 7f af be db b4 8d 3e 88 4e 38 3e 8c 5d 07 bf
       -0.342769 0.27677044 0.17998707 -0.52877116
0002a0 f4 77 b6 3e b0 ab e1 3e 95 a5 ba 3e 3d d7 bd 3e
       0.35638392 0.440763 0.36454454 0.37078276
0002b0 03 c4 1a 3e 96 45 03 bf 3a df de be e9 52 1e 3c
       0.15113835 -0.51278055 -0.43529683 0.009663322
0002c0 34 cd 3d bf 2d 32 92 be 07 94 d8 be 7d e4 a7 be
       -0.7414124 -0.28553906 -0.42300436 -0.3279151
0002d0 d2 81 ac bf ba 7a 9c 3e 01 4d 25 3e 5a 7f 34 be
       -1.3477118 0.30562383 0.16142656 -0.17626706
0002e0 1f 72 95 bf 7e 4a f2 3e 9e df 87 be 61 eb a2 be
       -1.1675452 0.47322458 -0.26537794 -0.31820205
0002f0 da b6 59 be 5e 9b c0 3e 63 ce 5e be 3c 20 9c 3d
       -0.21261159 0.37618536 -0.21758418 0.07623336
000300 69 4f b9 be 0d a7 93 be 7a 45 64 3f ea 35 f2 be
       -0.36193398 -0.28838387 0.8916851 -0.47306758
000310 39 3c 53 bb ee 9a a5 bc 57 f1 83 3e bb 17 c3 3e
       -0.003223194 -0.020215478 0.25770065 0.38104042
000320 32 5f fa be 36 d5 44 3e 38 33 35 be d6 6f a4 3e
       -0.48900753 0.19221959 -0.1769532 0.32116574
000330 d7 52 57 bf 56 61 9a be c9 13 51 3c 2d 62 13 bf
       -0.8411078 -0.30152386 0.012761065 -0.5757168
000340 f4 96 55 3e e7 24 0e bf eb b3 c9 be 13 b6 2d bf
       0.20858365 -0.5552506 -0.3939508 -0.6785595
000350 2b 7a 50 3e cf 4a 3a bf a8 58 0d bf 64 9c 87 be
       0.20359103 -0.727704 -0.55213404 -0.26486504
000360 ea 46 47 be 92 da a8 be 25 b4 3a be 4c ed 4d bf
       -0.19460645 -0.32979256 -0.18232782 -0.8044021
000370 2f 9b 35 bf 22 7a 15 3f 27 a6 52 bf ee 44 0b be
       -0.70939916 0.58389485 -0.8228478 -0.13600513
000380 9e 47 e0 bd fa 01 2e 3f 90 21 d0 3c a1 32 a3 bd
       -0.1095116 0.67971766 0.025406629 -0.07968641
000390 96 81 eb be 3f 4f 93 be 05 97 6f be 9d 7c 80 be
       -0.45997304 -0.28771397 -0.23397453 -0.25095072
0003a0 e5 80 ca 3d 31 dc 5a be a8 f6 8f be 21 fc 06 bf
       0.09887866 -0.21373059 -0.2811787 -0.5272847
0003b0 3a 15 3d bf 51 92 d2 bc a5 25 39 bf ba 0b c7 be
       -0.73860514 -0.025704535 -0.72323066 -0.38876134
0003c0 6d 39 ab 3e 34 77 41 3f 48 b8 82 3e 31 6f 14 be
       0.3344225 0.75572515 0.2553122 -0.14495541
0003d0 02 3b 00 3f f2 bd 91 be 4c 14 29 be 56 c5 03 bf
       0.5009004 -0.2846523 -0.16511649 -0.51472986
0003e0 2c f9 e9 be 84 c3 98 3e a1 20 d2 be 6b fe b4 3e
       -0.45697916 0.29836667 -0.4104052 0.35350356
0003f0 08 92 19 bf 80 c5 20 bf c5 81 15 3e ec b3 34 bf
       -0.5998845 -0.6280136 0.14600284 -0.7058704

lstm.weight_hh_l0 f4 [512, 128]
000000 24 e4 9c 3e 27 92 dd be 71 05 1b bf ec 46 91 3e
       0.30642807 -0.43275568 -0.6055518 0.28374422
000010 82 02 72 bd 47 94 1c bf b8 f8 f9 3e 83 2a 93 3e
       -0.059084423 -0.61163753 0.4882257 0.2874337
000020 c6 d4 6a be d8 b2 99 3e 72 1d a5 3e 01 e4 8a 3d
       -0.22932729 0.3001926 0.32249027 0.067817695
000030 91 61 4f be 00 d9 36 3f 20 0b dc 3d 2e 9e be be
       -0.20252062 0.71424866 0.107443094 -0.37230057
000040 63 7f a0 3e 9c 74 77 be 75 26 a1 3f 6b e1 cb 3e
       0.31347188 -0.24165577 1.2589861 0.39820418
000050 98 a4 c9 3c ea 16 15 3d b4 b4 9a bd 98 63 b0 be
       0.024614617 0.036398806 -0.07553998 -0.34450984
000060 f5 12 a3 bf 00 cd c1 ba 67 09 df 3e 41 34 97 be
       -1.274016 -0.0014785826 0.4356186 -0.29532054
000070 2d aa b7 3e 9d 72 9b be 22 57 ca be ee 62 f5 be
       0.3587202 -0.3036088 -0.39519602 -0.4792704
000080 44 aa ea 3c 4a af a8 3e 46 5f 49 be 0b ec ad bd
       0.028645642 0.32946235 -0.1966525 -0.08492287
000090 24 27 6f bf fe 10 2b 3e e0 f8 8d bc d7 98 8b 3d
       -0.934191 0.16705701 -0.017330587 0.06816261
0000a0 ca ac 88 3e 55 7e 44 3d d9 2a a5 3e 72 9e c9 3e
       0.26694328 0.047972042 0.32259253 0.39378697
0000b0 c6 40 9b 3e cd 23 e5 bc e7 2f 78 be c4 a7 8e bd
       0.30322856 -0.027971173 -0.24237023 -0.069655925
0000c0 ee 2f 9a be 48 85 6d 3f 53 4e 54 3d c7 c7 78 3e
       -0.30114692 0.92781496 0.05183251 0.24294959
0000d0 98 ce 4e 3c 8f f5 8f 3c 87 ac 61 be 24 a8 69 3f
       0.012622498 0.017573146 -0.2203847 0.9127219
0000e0 ac 0b 4e 3d e6 d9 81 3e da 5c 1e be b9 4e 2b be
       0.0503041 0.25361556 -0.15465108 -0.16729249
0000f0 ef 19 11 3f 65 5a a5 3e 98 d5 5e bd 51 54 4d 3e
       0.56680197 0.32295528 -0.054402918 0.20051695
000100 01 46 2f 3e 02 63 a3 3d 0f 18 6d be b6 9f 3c 3e
       0.17116548 0.079778686 -0.23153709 0.184203
000110 ea d9 ab 3e 57 75 60 bf 14 8e df bc 88 ea 5c be
       0.33564693 -0.87679046 -0.027289428 -0.21573842
000120 06 63 cc bd 14 33 85 be 37 21 11 3e c2 cd 68 be
       -0.09979825 -0.26015532 0.14172827 -0.2273474
000130 9e 1e a0 bb 84 95 a2 be 69 84 9a 3e 7a 1e 21 3e
       -0.0048864624 -0.31754696 0.30179146 0.15734282
000140 ea 70 c5 3d 3b 74 03 3f 24 3c 8d bd 23 8a 63 bd
       0.09640677 0.5134923 -0.068962365 -0.05555166
000150 5c 96 0e bd 93 be 44 3f a2 9a 84 3d 8f ed 1e bf
       -0.034811363 0.76853293 0.06474806 -0.62081236
000160 84 11 bc bf 56 ef ef 3e 24 13 4b bf 68 4d cd be
       -1.4692845 0.46862286 -0.7932608 -0.4009812
000170 ce 91 84 be 0f 11 85 be 1b 7f 79 3e ac 1f e2 be
       -0.2589249 -0.25989577 0.24364893 -0.4416479
000180 77 72 91 be 03 67 f9 3e 12 db 87 be 41 67 81 bd
       -0.28407642 0.48711404 -0.26534325 -0.06318522
000190 9d f2 a6 3f 99 4a 99 3e 97 41 20 bf be 9a 09 3f
       1.304279 0.29939726 -0.6260008 0.5375174
0001a0 13 98 e5 be 6f 42 08 be 3a ac 25 bd e6 07 91 bd
       -0.44842586 -0.13306592 -0.04044745 -0.07081585
0001b0 e7 46 dc be 67 91 11 3f a1 b7 aa be d7 5c fa be
       -0.43022844 0.5686249 -0.33343223 -0.48898956
0001c0 f4 24 2c be 30 ca 66 be 76 23 8c 3e 9b 03 33 bd
       -0.16810971 -0.22538066 0.27370805 -0.04370461
0001d0 ab 82 b0 bf cf 93 06 be 26 e9 3e bf a3 1b 12 bf
       -1.3789877 -0.13142322 -0.74574506 -0.5707342
0001e0 ee 54 41 bd e9 3f 4c 3e 84 eb af 3e 8e c5 e3 be
       -0.047200136 0.19946255 0.34359372 -0.4448666
0001f0 4d 77 af 3e 8d 78 ba bd 09 d0 48 bf 5f 31 cb 3e
       0.34270707 -0.091050245 -0.78442436 0.39686105
000200 9c c0 6a bd 4a 88 5f 3e fd a0 4c 3e 90 91 97 3e
       -0.057312593 0.21829334 0.19983287 0.29603243
000210 72 58 17 3f 7a 09 29 bf 8e 84 d6 3d 00 6d 7e 3c
       0.5911933 -0.66030085 0.104745016 0.015528917
000220 6e 04 06 bf 6f 86 79 be 5c d0 27 be 40 9a 04 3e
       -0.5235051 -0.24367689 -0.16388077 0.12949467
000230 58 a7 d0 3e bc dd c3 3e 33 ed 4f bf 66 88 09 be
       0.40752673 0.38255107 -0.8122131 -0.13430938
000240 79 a1 83 bd c4 6d 0c 3e fd b4 e4 bd f1 8d 6d 3e
       -0.06427283 0.13713747 -0.11167333 0.23198678
000250 ca ba d8 bd f2 c5 ca bd c4 5b 34 bf 20 d9 c1 3d
       -0.10582502 -0.09901036 -0.70452523 0.094652414
000260 b9 af a7 be 2c a7 70 bd 80 0d d2 b9 4b d3 46 3e
       -0.32751253 -0.058753178 -0.0004006438 0.1941654
000270 70 95 84 be 05 d5 71 3e fe 4d 8b be e5 88 52 3f
       -0.25895262 0.23616417 -0.2720794 0.82240134
000280 c3 f6 88 3f 15 e1 75 bf 33 22 28 bf 34 10 a9 3d
       1.0700306 -0.9604657 -0.65677184 0.082550436
000290 4c 5f 24 bf a2 79 85 bf 39 4c 8d 3e 95 38 23 bf
       -0.6420791 -1.0427744 0.27597216 -0.6375821
0002a0 bd 1d 55 3f 0f 5c eb 3d b6 9a 71 bf 25 f0 c7 3c
       0.832485 0.11492168 -0.94376695 0.024406502
0002b0 44 9a 16 bf 94 1f 40 3e 33 f4 7a be 8e 24 36 bc
       -0.5882914 0.18762046 -0.24507217 -0.011117114
0002c0 1a 30 e9 be 79 4b da 3d 4f 8a d7 be 82 df c1 3e
       -0.4554451 0.106589265 -0.4209771 0.37865835
0002d0 8c 04 a0 bc 4c d4 17 bf 9b 0a d8 3e 7b 57 2e 3e
       -0.019533418 -0.59308314 0.4219559 0.17025559
0002e0 17 d8 19 bf c2 04 10 be c2 05 08 be 76 b5 f6 3c
       -0.6009535 -0.14064315 -0.13283446 0.030115824
0002f0 56 a4 41 bd 6a 19 7c bf 50 50 17 be 3e 1b 18 bd
       -0.047275864 -0.9847628 -0.1477673 -0.037135355
000300 82 3a 15 be ab a6 13 3f 8f fb ad 3e 9f 82 0a be
       -0.145731 0.5767619 0.33980986 -0.1352639
000310 98 1f f6 bc 7f b8 74 3e a6 f5 ac bd a9 6b 17 bf
       -0.030044362 0.23898505 -0.08445291 -0.5914865
000320 f3 a0 7c 3f b2 13 c9 3e 0f 05 0c 3f dc de 09 bf
       0.9868309 0.3927284 0.5469522 -0.5385568
000330 e3 00 9f be e5 51 9a be ef 4a 5d 3e b7 0c b8 be
       -0.31055364 -0.30140606 0.21610616 -0.359472
000340 4e 00 82 be dd cf 7f 3e 35 a6 22 3f 70 d6 38 3f
       -0.25390857 0.24981637 0.6353486 0.72202206
000350 92 a7 fb 3c ed 3e 06 bf 02 45 5f be ca f8 46 be
       0.030719552 -0.5243977 -0.21803668 -0.19430843
000360 a6 44 5c bf e9 d0 1c bf 5f 07 a1 3e 48 51 a0 3d
       -0.8604225 -0.6125627 0.31450936 0.07828003
000370 20 c8 a1 3e 3e a6 6d be e0 5d 74 3d 23 be af 3e
       0.31597996 -0.23207948 0.05965984 0.3432475
000380 ab b9 29 bf 25 b4 17 3e c2 d9 19 3f 7a e9 7d 3f
       -0.6629893 0.14814813 0.600979 0.9918438
000390 d8 ec d9 3e 9f dd be be 2d 83 3a bf 7f b1 af be
       0.4256351 -0.37278458 -0.7285641 -0.34315106
0003a0 88 c3 20 bf 2c 30 a2 3e c8 70 a1 bd f4 b0 bf be
       -0.62798357 0.31677377 -0.078828394 -0.37439692
0003b0 13 a8 3d be 22 09 14 bf a8 ff 3a 3f bb 0b aa 3e
       -0.18521146 -0.57826436 0.7304635 0.33212075
0003c0 56 22 5c bf 45 e4 35 bf 8c e8 b9 3e 12 bc bf 3c
       -0.8598989 -0.71051437 0.36310232 0.023405109
0003d0 cf 3e ac 3d 08 0e 04 bf a0 5c be be 26 c6 af 3d
       0.08410417 -0.5158391 -0.37180042 0.08582716
0003e0 c0 80 75 3d 4f 1e b6 be bd 95 33 bd 8e 83 d9 3d
       0.05993724 -0.3557 -0.043843973 0.10620795
0003f0 2b e3 15 3d 37 75 4f be 28 ee a1 be 03 a6 8c be
       0.036593597 -0.20259558 -0.3162701 -0.27470407

lstm.bias_ih_l0 f4 [512]
000000 cd a0 7d 3c 7c 18 f9 bb 95 dd 90 3f 10 03 21 3f
       0.015480232 -0.0076017957 1.1317621 0.628953
000010 08 1c dc be 7b 93 3d 3e ec 5a 89 be a9 21 85 3e
       -0.42990136 0.1851329 -0.2682718 0.26002243
000020 32 92 f2 bc eb 5d 5c 3f 00 26 0e 3d c6 af 38 be
       -0.029610727 0.8608081 0.03470421 -0.18035802
000030 f9 2b 0c 3f 64 6f ad be 5b ad e7 3d 47 6e 1a 3f
       0.54754597 -0.33874047 0.11312362 0.6032452
000040 11 91 34 3f 9e c7 19 be dd 4b b8 bd ca 6a fc be
       0.70533854 -0.15017554 -0.08998845 -0.49300224
000050 46 86 d9 3e 1f 77 24 3f 5f 77 8c 3d 33 f0 91 be
       0.42485255 0.64244264 0.06858706 -0.2850357
000060 77 e8 87 be 54 47 db be 1e 76 83 3d 16 c2 0b 3f
       -0.26544544 -0.42827857 0.064190134 0.54593027
000070 04 10 5a be a9 b6 77 3e 01 ae 6f be fa d5 12 3e
       -0.21295172 0.24190773 -0.23406221 0.14339438
000080 68 ee fe 3e 65 0f 68 3c 45 fb 6b 3e 79 16 40 3f
       0.49791265 0.014163827 0.2304507 0.7503429
000090 e3 69 0d 3f b9 2d 9c 3e 59 28 36 3e bc 2c 8f bd
       0.55239695 0.30503634 0.17788829 -0.06990954
0000a0 2e f2 4a be af 52 48 bd bd 9d a1 be 35 db de 3e
       -0.19818947 -0.04890698 -0.31565657 0.43526617
0000b0 94 af 3e bf 26 fb 32 3e 40 ec b4 bd f0 f0 b6 bc
       -0.7448666 0.17478618 -0.088341236 -0.022331685
0000c0 e7 49 50 bd 0d 91 7a 3e 2e ce 4a bf c6 fd 63 3e
       -0.05085173 0.24469395 -0.79220855 0.22264776
0000d0 6a f2 1a 3f c9 8d df be 1e b4 49 be 8a 2a 2c be
       0.60526145 -0.4366286 -0.19697616 -0.16813102
0000e0 fd 32 55 3f e8 e1 66 3f a1 ad 0b 3f 24 da e1 3e
       0.83280927 0.90188456 0.5456181 0.4411174
0000f0 06 c2 ef bc 10 c5 19 bd bf a0 dd 3d bd 91 9d be
       -0.029267322 -0.03754145 0.108216755 -0.30775252
000100 f9 aa 36 bd d9 65 ff 3e 2e 6a bc 3e 7c 08 bf bd
       -0.044596646 0.4988239 0.3679976 -0.0932779
000110 7e 7c d2 3d cd 73 10 3f 30 ef 1c 3f 39 b3 6e 3e
       0.10277651 0.564267 0.6130247 0.23310556
000120 e4 a4 7a bc fc ab 9c 3e 46 03 e9 3d 17 a5 8a bd
       -0.015298102 0.30599964 0.113775775 -0.0676977
000130 7c de 8b be 61 b9 0c 3e aa a6 97 3e 0a 7e 21 3f
       -0.2731818 0.13742591 0.29619342 0.63082945
000140 0f ad 20 3f b6 2a d7 3e 4c 78 82 bd 46 9e 27 bf
       0.62764066 0.42024773 -0.06370601 -0.6547588
000150 a1 3c 6f be ef d2 35 3e 9f 67 50 be 26 f1 9e 3e
       -0.23362972 0.17756246 -0.20352028 0.31043357
000160 17 a8 39 3e cc 16 9f 3e df 35 a3 bd 48 96 2c 3f
       0.18130527 0.3107208 -0.079692595 0.6741681
000170 b2 bd a0 be 3d 35 1f bf f8 60 eb bd 1e 74 d0 3e
       -0.31394726 -0.6219061 -0.11493105 0.4071359
000180 da 2b 05 3e 33 90 c3 3e a3 72 2e 3f 58 c0 66 3e
       0.1300501 0.38195953 0.6814367 0.22534311
000190 7b 5b bb 3c ee ae 11 3f 48 12 c6 3e 77 1f 09 bf
       0.02287077 0.56907547 0.38685822 -0.53563637
0001a0 21 d9 b5 3e df 63 05 3f cd 15 a4 be 5a db 91 3f
       0.3551722 0.52105516 -0.32047883 1.1395066
0001b0 22 51 ac 3e e2 7d 8d 3f ef 02 3b 3f 07 70 38 3d
       0.3365565 1.1054041 0.7305135 0.045028713
0001c0 03 6f 1e be be 03 05 be 86 ac 44 3f 4a a0 1a 3f
       -0.15472035 -0.12989709 0.7682575 0.6040083
0001d0 5a 34 ee 3d 1b 37 83 3e 14 88 e4 3d 1f b5 cc 3d
       0.11631079 0.2562798 0.11158767 0.099954836
0001e0 63 33 41 3f 7d 2a 03 bf f1 c8 6a bd ef 55 4a 3f
       0.75469035 -0.51236707 -0.05732054 0.79037374
0001f0 70 58 32 3e d8 91 91 3d df 16 5d bd 26 cf 53 be
       0.17416549 0.071078956 -0.05397689 -0.2068449
000200 a4 da f4 bd 9c 9e 0a 3f b5 b5 37 3e f5 5c b0 be
       -0.11955765 0.5414827 0.1794041 -0.3444592
000210 82 52 40 bf b9 8f cc be ee fd 02 be 21 fa 7d be
       -0.75125897 -0.39953402 -0.12792179 -0.24802448
000220 f6 95 1c be 18 33 50 3e 8f 3d 2a 3f 6a 01 3e bc
       -0.1529158 0.2033199 0.6650018 -0.011597017
000230 95 bf 95 3e 5b 60 0f 3f 65 56 75 3d 9e 98 4f be
       0.29247728 0.560064 0.059896845 -0.20273063
000240 3b a5 30 3e 6c ae f2 be 86 d1 6f 3e 30 3c 8c bb
       0.1725053 -0.47398698 0.2341977 -0.004279636
000250 61 b5 ae 3e ef ca 8c 3e 83 07 c3 3e 16 70 c2 bd
       0.34122756 0.27498576 0.38091668 -0.09494035
000260 4d 19 0a bf cb 66 97 bd b4 07 ff be 77 f0 82 be
       -0.53944856 -0.07392653 -0.49810565 -0.25574085
000270 31 61 d7 be 97 38 bb bd 46 15 36 3e e7 c9 25 3f
       -0.4206634 -0.09141653 0.17781553 0.64761204
000280 ec 66 c4 3e 68 fe 3b bf 8d df 02 bf 44 50 b4 3e
       0.38359773 -0.7343507 -0.5112236 0.35217488
000290 39 4c 13 bf 17 18 fa bd 81 1a dc 3d d0 05 99 be
       -0.5753818 -0.12211626 0.10747243 -0.29887247
0002a0 01 be 8c 3d f9 87 0b 3f 80 b2 ae 3e 3c 74 41 be
       0.06872178 0.5450435 0.3412056 -0.18891996
0002b0 13 a6 3d 3e 72 f7 dc be d5 11 09 bf 50 4c 2a 3d
       0.18520384 -0.43157536 -0.53542835 0.041576684
0002c0 64 4a 42 bd b0 e0 0b bf 95 b8 b8 be 8f d3 d2 bd
       -0.047434226 -0.5463972 -0.36078325 -0.10294258
0002d0 dc 8d 9a be 24 5f d8 3e ae ba a2 3e 2d 44 98 be
       -0.30186355 0.42260087 0.3178305 -0.29739514
0002e0 fc 9e c8 be c3 d5 70 3e 4c fe 11 be 7a 45 db be
       -0.39183795 0.23519044 -0.14257163 -0.42826444
0002f0 5e 8d 43 bd 36 56 6a 3e 60 88 7c be 43 e6 5a 3e
       -0.04774224 0.2288445 -0.24661398 0.213769
000300 8c 16 77 be 4f 41 28 3e 7d 8c ff 3e 2c 31 e2 be
       -0.24129695 0.16431163 0.49911872 -0.4417814
000310 ef 2a 86 be 77 29 0a 3f 61 e0 18 3e 0d 0e ab 3e
       -0.2620463 0.5396952 0.14929344 0.33409157
000320 f7 e9 bd bc 37 54 0c 3f d4 cd 02 bd 35 28 16 3e
       -0.023182852 0.54816 -0.031934574 0.14663775
000330 54 90 e3 be a2 c7 75 be 7c 7e 92 3e 53 30 8e 3d
       -0.4444605 -0.24001935 0.28612125 0.06942811
000340 f2 b8 67 3e 7e 80 f4 3d d5 2a 97 be 33 75 19 bf
       0.22629145 0.119385704 -0.29524866 -0.59944457
000350 32 15 96 be e4 7e 47 be 6e f5 66 be 57 1d 95 be
       -0.29313046 -0.19481999 -0.22554561 -0.29123947
000360 cd 33 36 bd 52 49 a1 be 3e a1 18 3d 63 9e 13 3e
       -0.044482995 -0.3150125 0.037263148 0.14415888
000370 be 5d 44 be d1 1d f9 3e cd bd 98 be f2 ad 85 3e
       -0.19176385 0.4865556 -0.29832307 0.26109272
000380 ab d0 ba 3e 3b f2 1d 3e 72 20 6e 3e c1 7a 13 be
       0.36487326 0.15424435 0.23254564 -0.14402296
000390 ab 4d a4 be eb 21 c2 be 1e 88 33 3f cb df 6d be
       -0.32090506 -0.37916502 0.70129573 -0.23229901
0003a0 e3 43 9f 3d df 93 12 bd 10 ae 12 bf 0f 98 d6 be
       0.0777662 -0.035785552 -0.5729685 -0.41912887
0003b0 d6 d3 e0 3d 0a a5 58 be 5d f2 9a bd a9 eb 08 bf
       0.109779045 -0.21156707 -0.075657584 -0.5348459
0003c0 76 be 8a 3e 5b 94 32 3f 46 f1 fb bd f0 c5 c8 be
       0.27098435 0.6975762 -0.12301879 -0.39213514
0003d0 86 04 b0 3e 19 2c b4 be 20 2d b5 be db 99 37 bf
       0.3437845 -0.35189894 -0.3538599 -0.7171914
0003e0 df 82 19 bf fe b3 e2 3e 09 b1 00 bf 8a fe d4 3e
       -0.5996532 0.44277948 -0.50270134 0.41600448
0003f0 a3 f7 93 be dc e3 8e be e5 ff 80 3e e4 4a a1 be
       -0.2889987 -0.27908218 0.25195232 -0.3150245

lstm.bias_hh_l0 f4 [512]
000000 c7 e3 8e 3d f1 38 1d be a0 62 84 3f 16 e5 42 3f
       0.06977039 -0.15353753 1.0342598 0.7613081
000010 d6 ff bd be 8d 10 24 3e 17 a5 20 be be 9c 4f 3e
       -0.3710925 0.16021939 -0.15687977 0.20274636
000020 52 65 f9 bc 21 84 4b 3f 26 e2 73 3d f0 1c 94 be
       -0.030443821 0.7949849 0.059541844 -0.28928328
000030 89 48 05 3f 6c a2 8b be 9d f3 19 3e b3 c9 1a 3f
       0.52063805 -0.27272356 0.15034337 0.6046402
000040 cf 9d 2f 3f cf e6 eb bd 5f c9 f2 bd 9d e9 eb be
       0.6860017 -0.115186326 -0.11854815 -0.4607667
000050 32 d7 d6 3e cb 30 20 3f 78 21 1a 3b df af 94 be
       0.41961056 0.6257445 0.0023518484 -0.2904043
000060 dc 9d 6e be c0 bd a2 be e5 fc 97 3c 0b 49 fe 3e
       -0.23302406 -0.31785393 0.018553207 0.49665102
000070 a9 07 c8 bd c9 a2 b7 3e 0d 44 99 be bf 1e 27 3e
       -0.09767086 0.35866383 -0.2993473 0.16320322
000080 61 64 cb 3e ef b3 87 bd 6b d0 5e 3e 2b 9a 3c 3f
       0.3972502 -0.066261165 0.21759193 0.7367274
000090 66 90 19 3f 59 53 d4 3e 63 89 c8 3d ab 57 5c be
       0.5998596 0.4146984 0.097918294 -0.21517818
0000a0 2b 1c 4e be d8 61 f1 bc 78 9c cf be 1b e3 b1 3e
       -0.20127933 -0.0294656 -0.40549064 0.3474358
0000b0 20 1d 58 bf 65 08 86 3e b8 af 8a bd 55 0e ff 3c
       -0.8441944 0.2617828 -0.06771797 0.031134764
0000c0 61 33 a3 bd 21 03 91 3e 46 4e 4b bf ea ba e6 3d
       -0.07968784 0.283227 -0.7941631 0.1126612
0000d0 d3 31 1b 3f 97 55 c0 be 8f 9c 95 be 1c d6 41 be
       0.606229 -0.375653 -0.29221007 -0.18929332
0000e0 63 99 4a 3f 68 71 6c 3f f5 77 15 3f e2 40 f1 3e
       0.791403 0.92360544 0.58386165 0.47119814
0000f0 f1 98 e9 bd bd f5 88 bd 4c f2 8a 3c 37 5d 92 be
       -0.114061244 -0.06687496 0.01696124 -0.28586742
000100 8a 80 e7 bd 69 60 d4 3e 40 82 64 3e de 2a e4 bd
       -0.11303814 0.41479805 0.22315311 -0.11140989
000110 60 ba f1 bc 43 71 1c 3f 60 7e 0f 3f 29 f5 93 3e
       -0.029507816 0.61110324 0.5605221 0.2889798
000120 4c c5 32 be d6 39 a6 3e 8a 55 93 bb db e8 3f 3c
       -0.17458075 0.32466 -0.004496281 0.011713232
000130 e8 f8 8f be d8 cb f4 3d ce ce 90 3e 68 89 1c 3f
       -0.28119588 0.119529426 0.2828278 0.61147165
000140 6f 6b 20 3f 16 b6 cc 3e 3e a8 d2 bd 3f 80 23 bf
       0.6266393 0.3998267 -0.10285996 -0.63867563
000150 26 97 91 be 37 98 07 3e 41 4d 39 be d8 47 9d 3e
       -0.2843563 0.13241659 -0.18095876 0.30718875
000160 c9 22 70 3e 74 23 1b 3e 3a aa e6 bd b0 1b 15 3f
       0.2345077 0.15150243 -0.11262937 0.5824537
000170 8c 49 ae be 41 e4 09 bf 46 ad 01 be 23 96 0a 3f
       -0.34040487 -0.5386391 -0.12663755 0.5413534
000180 5f b9 c9 3d a0 21 00 3f 3b 1a 18 3f ab a1 03 3e
       0.0984981 0.5005131 0.59415025 0.1285464
000190 7e a5 43 bc 7c 61 0b 3f a8 48 bd 3e be 12 19 bf
       -0.011941312 0.54445624 0.36969495 -0.59794223
0001a0 93 f1 59 3e e9 69 1a 3f e9 89 b9 be 04 56 83 3f
       0.2128356 0.60317856 -0.3623803 1.0260625
0001b0 90 25 ac 3e 83 c0 8b 3f b3 e2 42 3f 96 85 b4 3c
       0.33622408 1.0918125 0.76127166 0.022036355
0001c0 e7 34 1c be f9 43 3c be 98 b1 2c 3f 5c a4 22 3f
       -0.15254556 -0.18385305 0.67458487 0.6353204
0001d0 75 49 5e 3e 36 66 b7 3e e5 b6 07 3e 2f c7 da 3d
       0.21707709 0.35820168 0.13253362 0.106825225
0001e0 3f 35 54 3f ec 30 21 bf 23 dd 9d bd 77 c5 45 3f
       0.8289375 -0.62965274 -0.07708194 0.7725443
0001f0 50 ea 3e 3e 1f da 3a 3d a4 21 d3 bc 6a 79 a8 be
       0.1864407 0.045618173 -0.025772877 -0.32905132
000200 8e 51 fa bd 2a 4c eb 3e 75 43 25 3e 7e c2 a7 be
       -0.122225866 0.45956546 0.16139014 -0.32765573
000210 c0 87 48 bf 25 9e db be 3c 57 25 bd 2e c3 6c be
       -0.7833214 -0.42894092 -0.040366396 -0.2312133
000220 ad 80 9a be 9d d1 53 3e 32 6b 2f 3f e0 b7 78 bd
       -0.30176297 0.2068543 0.6852294 -0.060722232
000230 5d 4d 7c 3e f4 80 f6 3e c9 b9 6b bd 82 08 5f be
       0.24638887 0.48145258 -0.057550225 -0.21780589
000240 14 56 fe 3d f8 6b a7 be 76 56 aa 3e b4 9d fe 3c
       0.12418762 -0.3269956 0.3326909 0.031081058
000250 51 13 8b 3e d6 bc 73 3e 8c aa 9a 3e 17 57 a9 bd
       0.27163175 0.23802504 0.30208242 -0.08268564
000260 c7 42 fc be 81 5d 20 bd b9 9d da be 60 1c 48 be
       -0.49269697 -0.039151672 -0.42698458 -0.19542074
000270 07 6d 01 bf 97 f1 b4 bd 72 9c a6 3d e9 81 2f 3f
       -0.5055699 -0.08835142 0.08135308 0.685576
000280 4a 81 af 3e 33 ae 26 bf 86 bd 11 bf f6 df 92 3e
       0.34278327 -0.65109557 -0.56929815 0.28686494
000290 3b b1 0b bf 73 7a d4 bd 59 c5 82 3e ce ce bf be
       -0.5456731 -0.10374918 0.2554119 -0.37462467
0002a0 d3 47 1e 3e 4c da ea 3e 6a b4 59 3e 20 76 92 be
       0.15457086 0.45869672 0.21260229 -0.28605747
0002b0 91 ac 3c 3e b6 02 cc be 6b 39 ce be 5b 4c 14 bc
       0.18425204 -0.39845818 -0.4027818 -0.009051408
0002c0 e3 2b 39 3c 65 5f 04 bf 5d ac c7 be 31 f0 85 bd
       0.011301967 -0.5170806 -0.3899869 -0.065399535
0002d0 d0 9b 91 be 96 0a d7 3e 3e 3c 62 3e 67 37 99 be
       -0.28439188 0.42000264 0.22093293 -0.2992508
0002e0 b2 7a 96 be 65 14 19 3e c4 01 96 be a8 aa eb be
       -0.29390484 0.14949186 -0.29298222 -0.46028638
0002f0 60 9a 37 be d5 e9 3d 3e 62 89 03 be a4 3f bd 3e
       -0.17929983 0.18546231 -0.12845376 0.36962616
000300 ad b8 88 be 47 e7 69 3e 89 b2 f9 3e 92 00 b0 be
       -0.26703396 0.22842132 0.48769024 -0.34375435
000310 f9 58 50 be b4 2f e5 3e 00 1c 72 3d 93 44 a6 3e
       -0.2034644 0.44762957 0.059108734 0.32474193
000320 e3 33 d9 bd d2 f3 17 3f 3e f7 26 bd 68 e1 d7 3d
       -0.106056 0.59356415 -0.040763132 0.1054104
000330 86 b8 f3 be 34 58 63 be c2 a7 9d 3e b2 af 53 bc
       -0.47601718 -0.22201616 0.30792052 -0.012920307
000340 c8 d4 5a 3e a9 d0 05 3e ff 5c 91 be 6f 8e 1c bf
       0.21370232 0.13067879 -0.28391263 -0.61154836
000350 45 05 c7 be a4 fb 28 be 2e ef 47 be a4 a2 ac be
       -0.38871208 -0.16502243 -0.19524834 -0.33717835
000360 bd 3d 5d bd 7c 81 8a be ed 02 03 3e 44 58 37 bc
       -0.054013956 -0.27051914 0.12794085 -0.011190478
000370 13 9c 5b be b6 ef 16 3f 4c 92 d3 be 8d d9 31 3e
       -0.21446256 0.5895952 -0.41322553 0.17368145
000380 7b 0d 7f 3e 9f cd 7b 3e 5e 64 63 3e 99 d5 23 be
       0.24907486 0.24590157 0.22206256 -0.1599945
000390 76 6d 8b be a7 d4 b4 be f0 d8 0d 3f 80 0a c4 be
       -0.2723195 -0.3531849 0.55409145 -0.3828926
0003a0 4a a5 41 3e 9d be 0f 3d ca fb fc be d7 1e de be
       0.18910709 0.035093892 -0.4941085 -0.43382904
0003b0 24 6b 1f 3e b0 9e 6f be 5e 39 1e be 9b fe 08 bf
       0.15568215 -0.23400378 -0.15451571 -0.535135
0003c0 34 8c 4e 3e 05 d5 26 3f 20 62 cb bd 18 fe ca be
       0.20170671 0.6516879 -0.09930825 -0.39646983
0003d0 38 00 f1 3e ac e9 7c be 61 66 a6 be b1 f1 4c bf
       0.4707048 -0.24698514 -0.32499984 -0.8005629
0003e0 89 d1 fe be b4 d6 f5 3e e0 60 06 bf ee 6e e3 3e
       -0.49769238 0.48015368 -0.5249157 0.4442057
0003f0 85 72 c8 be 13 a9 3c be 45 00 96 3e 78 61 ab be
       -0.3914987 -0.18423872 0.2929708 -0.334728

lstm.weight_ih_l1 f4 [512, 128]
000000 b5 fa 3b 3c 37 04 cc bd cb 13 79 3e 64 0c d1 bd
       0.011473347 -0.099617414 0.24323957 -0.102074414
000010 a3 c5 5c bf a2 bf 28 3e 36 e0 6c be ef 2c 6b 3e
       -0.8623907 0.16479352 -0.23132405 0.2296636
000020 e6 b8 03 bd bb 2f 7a 3e ed 4f ad bc 0b 10 14 be
       -0.032158755 0.2443227 -0.021156276 -0.14459245
000030 7a dd 32 3e 44 c1 5b 3e 12 b5 f8 be e3 10 3d be
       0.17467299 0.21460444 -0.48575646 -0.18463473
000040 4f c5 ea be 6d 77 04 bf 72 26 e9 bc 92 17 cd 3e
       -0.4585366 -0.5174473 -0.028460715 0.40057045
000050 a0 4a 72 be 2b 8e ce 3e 88 7f 97 bd 47 08 c1 be
       -0.2366128 0.4034284 -0.073973715 -0.37701628
000060 0e 49 3b 3f 8b e4 a6 bd f1 cd 4b 3e ad 04 b0 bd
       0.7315835 -0.0814906 0.19902779 -0.08594642
000070 11 a0 4a 3f 83 5e 2f 3e 92 b7 1c 3f b4 fd bf 3e
       0.7915049 0.17125897 0.61217606 0.37498248
000080 b0 3f 16 bf 56 64 47 3f 66 6c a0 3e e7 2c 33 3e
       -0.5869093 0.77887475 0.313327 0.17497598
000090 f7 29 e7 3d dc 77 43 3e fd f9 54 3b 59 07 04 bf
       0.11287301 0.19088691 0.0032497637 -0.5157371
0000a0 48 dd d0 3e c7 a1 03 bf b8 88 52 3f 54 e1 9e 3f
       0.40793824 -0.5141873 0.82239866 1.2412515
0000b0 ba 87 95 be 8a fe cb be ae 39 1a 3e c4 44 ac be
       -0.29205114 -0.39842635 0.15061066 -0.33646214
0000c0 0a 56 ad be 0c 31 90 be bc 1b 8a be 9e fc 53 be
       -0.33854705 -0.2816242 -0.26974285 -0.20701835
0000d0 39 f6 5d 3e 24 23 0f 3f 9d 28 44 bf 85 82 2d 3e
       0.21675958 0.55912995 -0.7662447 0.1694432
0000e0 5d f0 d7 bd 39 88 19 3c a1 27 25 bf 8d ce 24 3d
       -0.105438925 0.009370857 -0.64513594 0.040236045
0000f0 e7 55 58 bf 37 54 71 be 84 d2 52 3e 89 70 96 be
       -0.84506077 -0.23567282 0.20588118 -0.29382733
000100 0c 6d 1c 3f c6 28 33 3d 30 64 24 be 34 62 e8 be
       0.6110389 0.043740056 -0.16053843 -0.45387423
000110 62 8f c4 3d ea ad 0e 3d 8c 40 85 3e fc 47 a3 3d
       0.095976606 0.034833826 0.26025808 0.07972714
000120 f4 05 a7 3d 26 09 b3 3d 0f 2e af be da 2f 70 3e
       0.08155432 0.08741979 -0.34214827 0.23455754
000130 f4 6a 6d 3e 85 13 19 3f 48 85 e3 3e a4 dc 16 bd
       0.2318533 0.5979541 0.44437623 -0.036831513
000140 0b c6 6c bd a1 63 16 3f 98 a3 9b be 79 2f 94 be
       -0.057806056 0.5874577 -0.3039825 -0.2894247
000150 d0 5c df 3d d2 b7 75 3e bb 6e 58 3f ac 9a 0f 3e
       0.109063745 0.23995903 0.8454396 0.14023846
000160 d0 63 c6 3e 64 9e 6f 3f d3 b5 06 be 8a 8a 5c 3e
       0.38748026 0.9360106 -0.13155298 0.21537223
000170 68 b9 8e 3d 2c a4 46 3d 33 9a 10 3c 63 af 3b be
       0.06968957 0.04849641 0.008825826 -0.18328623
000180 76 7e b4 be f3 de 7c be 2b b1 2c 3e 49 b8 12 3f
       -0.35252732 -0.24694423 0.16864459 0.57312447
000190 e4 41 53 bd f7 f0 8a be 5f c1 cb 3d 84 ee ea be
       -0.05157651 -0.27136967 0.09948992 -0.45885098
0001a0 3c 9e 2c bf 33 dc db be 20 36 7b be b0 4b 06 3d
       -0.67428946 -0.42941436 -0.24532366 0.032787025
0001b0 89 6d 91 bd 88 ff 02 3e b1 ea a9 3e f7 64 bf be
       -0.0710097 0.1279279 0.33186868 -0.37381718
0001c0 2d 03 82 be 0c 04 0b 3d a0 93 ad 3e 13 6b 57 bd
       -0.25393048 0.033939406 0.3390169 -0.05259235
0001d0 73 77 03 bf 70 98 19 3f 9a 98 af 3e dc eb f1 3d
       -0.5135414 0.59998226 0.34296113 0.11812565
0001e0 fc 4f 4c be 1d 7b 21 be e3 88 6d 3c bd 7c 44 be
       -0.19952387 -0.1576962 0.014497968 -0.19188209
0001f0 e8 84 41 bf fa 4c d7 be cb 70 4f 3f e6 bf db 3e
       -0.75593424 -0.42050916 0.81031483 0.42919844
000200 55 86 2c 3f 8c 10 cf bd 20 98 3e be 79 10 fd 3e
       0.67392474 -0.10110578 -0.18612719 0.4942663
000210 75 da 26 3e 3d a2 87 be e7 de 34 3d dc c8 de bd
       0.16294272 -0.26490965 0.04415789 -0.10878155
000220 5c bc 4f bd af 72 34 3f 0f 09 cc 3e 28 8b d7 3e
       -0.050716743 0.70487493 0.3985066 0.42098355
000230 44 c0 0b bf d7 15 e9 3c fc 47 8b 3e 5d 68 ba 3d
       -0.5459025 0.028452797 0.27203357 0.09101937
000240 57 77 25 3e d1 6e d0 bc e8 4d 19 be a0 bf 8e be
       0.16158806 -0.025443466 -0.14971125 -0.27880573
000250 2d a5 22 bf 87 bb 9d bd 1a ae e8 3d 79 38 ed 3d
       -0.6353329 -0.077017836 0.11361332 0.11583037
000260 52 67 49 be 33 36 8f 3c 3f 8b 13 3d 21 3f 78 be
       -0.1966832 0.017481899 0.036021467 -0.24242832
000270 e9 7b 26 be 40 e6 56 be 54 55 cc be 60 62 b0 bd
       -0.16258205 -0.20986271 -0.3990885 -0.086125135
000280 8e dc c5 bd 04 7d a2 3d c9 4d 50 3e 46 bb 21 bf
       -0.09661208 0.07934001 0.20342173 -0.6317638
000290 6e b3 3d 3d 7f fd 33 3e 6c e9 e2 bc 88 86 d2 be
       0.046313696 0.1757717 -0.027699195 -0.41118264
0002a0 ee 61 e2 be 7b 69 71 be 2f 1d 81 bc 71 1c 80 3d
       -0.4421534 -0.23575394 -0.015760986 0.06255425
0002b0 aa 15 97 3e dc 5a 6a bd 0f 67 86 be e6 84 3f be
       0.29508716 -0.057215557 -0.26250502 -0.1870304
0002c0 8e ee 39 bf f7 8a 8d 3d ba 77 a5 3c 13 84 3c 3e
       -0.7262963 0.06911271 0.020198692 0.18409757
0002d0 1a 71 24 bd 40 fc 70 3e 8b 6b ae 3c 0a 07 c2 bd
       -0.040146925 0.23533726 0.021291515 -0.09473999
0002e0 04 72 18 bf c7 0f 08 3f 2f ce 86 3e b2 b9 96 3e
       -0.59548974 0.53149074 0.2632918 0.2943855
0002f0 b5 ee cb bd 16 ae 88 3e 1e 01 c7 be eb c8 33 3f
       -0.09957639 0.26695317 -0.3886804 0.7022845
000300 39 a9 dc 3c 9a f0 41 be 71 00 32 3f 72 87 9a 3e
       0.02693616 -0.18939438 0.69531924 0.30181462
000310 e2 7e 2d bd 53 de c0 bd a6 c0 4e bc a5 3e f9 bb
       -0.042357333 -0.09417405 -0.012619173 -0.0076063448
000320 26 6d bc be 4e a7 f0 be ac 47 c4 3e f8 f0 75 3e
       -0.36802024 -0.47002643 0.3833593 0.24017704
000330 0a 05 4d be 4c 57 c8 be 5b 3d a5 3e 6d 98 82 be
       -0.20021453 -0.39129102 0.32273373 -0.25506917
000340 5d fb 3d 3f 41 96 e8 3e 2c cd 11 bb bd 02 dd bd
       0.74211675 0.45427135 -0.0022247536 -0.10791538
000350 a4 5b 23 be 28 b7 5f be dd 44 67 3e b8 e8 82 bd
       -0.15952927 -0.21847212 0.22584863 -0.06392044
000360 81 b7 9d be b9 01 5e 3c cb 31 7c be 0a 66 2b bf
       -0.30804065 0.013550215 -0.2462837 -0.66952574
000370 6f e2 98 be a2 ef 02 3f f4 05 8b 3d 8a a4 7f 3d
       -0.29860255 0.511469 0.06788245 0.062412776
000380 1a e3 1e 3f c2 2e b7 bd 81 bf 91 be b7 3c 5d be
       0.6206528 -0.08944465 -0.28466418 -0.21605192
000390 18 26 df bc 43 bb b8 3b fc c8 36 be 83 79 0c bd
       -0.027239844 0.0056375577 -0.17850107 -0.03429557
0003a0 da 8a 8e be 6f ad 04 bf f9 a5 80 be a8 71 11 3f
       -0.2784031 -0.5182714 -0.25126627 0.5681405
0003b0 46 dd 2f 3d 38 db 90 3d f2 63 05 3f 73 3f 6a be
       0.042935632 0.07073063 0.5210563 -0.22875766
0003c0 a9 89 84 3d eb 46 ea 3e d7 e1 01 be 54 30 8d 3e
       0.06471569 0.4575723 -0.12683807 0.27575934
0003d0 62 88 96 be dc e4 79 3d 71 dd 77 3e cd d6 5b 3d
       -0.29400927 0.061009273 0.24205567 0.053671647
0003e0 53 25 3c 3e 31 37 45 3e e1 b7 88 be ca 25 eb be
       0.18373613 0.19259335 -0.26702788 -0.45927268
0003f0 c3 3d ae bc db 7d af bc af ee b6 3e 8c 63 6d 3d
       -0.021269685 -0.021422317 0.35728976 0.057956263

lstm.weight_hh_l1 f4 [512, 128]
000000 40 d9 b2 3e e8 0b 57 3d 06 b1 41 bd b9 87 a7 3d
       0.34931374 0.05250159 -0.047287963 0.08180184
000010 e4 50 3f bd fc 0f ef bd 52 e1 20 3f 09 46 34 3c
       -0.046708003 -0.11672971 0.6284381 0.011003026
000020 b7 5b 45 3f 70 ec ff 3e 4e a4 2f 3f 81 2c 29 be
       0.7709307 0.49985075 0.68610084 -0.16520883
000030 28 f7 87 3e d1 4f 49 3e 3a ca 3b bd dc d3 90 bd
       0.26555753 0.19659354 -0.045847155 -0.07071659
000040 c0 96 8f bd 48 df c2 3e 67 9e 73 bb 2e 26 68 be
       -0.07011175 0.38060975 -0.0037173273 -0.22670814
000050 81 46 a6 3e 0f 6b 9a 3e 66 af 12 be ea 85 6d bd
       0.32475665 0.30159804 -0.14324722 -0.05798904
000060 a0 a5 3f be 53 8c 82 3e d7 71 26 bf e4 9f ed 3d
       -0.18715525 0.25497684 -0.65017456 0.11602762
000070 a6 47 2c bf b6 6c 74 3f 02 0b 70 be 5f 83 5b 3f
       -0.67296827 0.9547838 -0.23441699 0.8574733
000080 a8 cc 98 be dd b7 8f 3c 1c 58 8f be 0f 43 68 be
       -0.2984364 0.017543728 -0.2799691 -0.22681831
000090 bb ab 62 3f 0c 84 57 bf 01 27 4a be 5a 77 0b 3e
       0.8854329 -0.8418586 -0.19741441 0.13619748
0000a0 cb 90 34 be 6f 0c 1e bf db 5f 06 bd 3c d8 5a be
       -0.17633359 -0.6173772 -0.03280626 -0.2137155
0000b0 fd e4 08 be fb f3 60 be b7 b9 12 3f f0 6d 4d 3a
       -0.13368602 -0.21968071 0.5731463 0.00078365114
0000c0 1f c6 87 be c1 b7 8c bd 1e ac 81 3d 0d d6 68 3e
       -0.26518342 -0.06870986 0.06331657 0.22737904
0000d0 4c b0 6f 3e c0 4f 08 bd 64 31 87 3d 26 54 cb 3e
       0.23407096 -0.03327918 0.066012174 0.39712638
0000e0 ca 95 5e be ef d1 17 3e 5b 1b 2f 3e 96 e4 33 be
       -0.21736827 0.14826177 0.17100279 -0.17567667
0000f0 26 af 61 be a1 ff c8 3e 76 2f 28 3d e7 f5 15 3f
       -0.2203947 0.3925753 0.041060887 0.5857834
000100 e3 40 a6 3e 12 ac 10 3e 0d 7f a6 3e f5 4e 38 3f
       0.3247138 0.1412814 0.32518807 0.7199548
000110 4f f7 7f 3d a5 a0 59 bf f6 9d 7e 3f e0 c1 ea 3e
       0.06249171 -0.8501075 0.9945978 0.4585104
000120 ae aa d9 3e 53 37 fc bc 3b d9 a0 bc 69 a3 d0 3e
       0.4251303 -0.0307881 -0.019634834 0.40749672
000130 cf 85 8c be ec e1 48 be 40 91 d4 bd 70 ba e7 3b
       -0.27445838 -0.19617432 -0.10379267 0.0070717856
000140 eb 42 f0 bd eb 97 ae bc f0 68 25 3e 6b 8f 9b be
       -0.117315136 -0.021312675 0.16153312 -0.30382857
000150 bd db 12 3e 87 1e 50 3e d9 29 01 bf e2 f0 84 bd
       0.14341636 0.20324145 -0.5045448 -0.06491257
000160 99 35 dc bd 45 21 11 bf 1f 57 a6 be f1 19 40 3e
       -0.107524104 -0.5669139 -0.32488343 0.18759896
000170 5c e2 8a 3e ab 2f 4e bf 0c 1e b3 3c 0d 03 fa bd
       0.27125823 -0.80541486 0.021864913 -0.12207613
000180 99 d6 a4 3e ff 28 60 bd 07 b5 23 3e a9 f7 14 3f
       0.32194975 -0.054726597 0.15987025 0.581904
000190 21 a7 29 3e 62 cc 8f bd d8 77 d4 be 4c 0a 9c 3e
       0.16567661 -0.07021405 -0.41497684 0.30476606
0001a0 b4 4a 84 3e 95 8c 0b 3e b8 9d 27 be f6 53 b7 3c
       0.25838244 0.13627847 -0.16368759 0.022378903
0001b0 2a c7 e8 bd 5e 43 34 be 60 43 f0 bd 15 49 d5 3d
       -0.113661125 -0.17603824 -0.11731601 0.1041433
0001c0 6f ee 49 3c a6 7e 93 bc 52 39 5c be 96 5f 07 3f
       0.012324913 -0.018004727 -0.21506241 0.5288023
0001d0 9d 29 f3 bd da 9f a7 3e 03 63 52 3f 87 3c d5 3e
       -0.118731715 0.32739145 0.8218233 0.4164774
0001e0 b3 82 b9 be b1 18 a1 3d dc 61 2b bf 8e 0f 16 3e
       -0.36232528 0.07866038 -0.66946197 0.14654371
0001f0 85 fe f6 3f 37 49 3c 3e 1c 05 8b 3d e8 2c 10 3f
       1.9296423 0.18387304 0.06788084 0.5631852
000200 27 14 30 3e e9 9c 8f 3d 29 60 41 bd 70 2c ae be
       0.17195188 0.0701235 -0.047210846 -0.34018278
000210 d0 ba 48 bd 97 21 7a be 9a 82 12 3d 0a 60 3b 3e
       -0.049006283 -0.24426876 0.035769083 0.18298355
000220 26 b5 37 3e 04 c4 89 3d b8 a3 0f bd 3a 31 00 be
       0.17940196 0.0672684 -0.035068244 -0.12518778
000230 e0 89 1c be c3 32 0b bd 58 03 5e be 1c f1 28 3e
       -0.1528697 -0.033983957 -0.21680963 0.16498226
000240 ad 2c 18 3f b5 9a 86 be 65 fc fc bd 2a 09 7a bc
       0.5944317 -0.26289907 -0.12352828 -0.015260974
000250 f1 6c 94 bb bc 14 fb bd e6 a6 9f 3d 8c 3b 27 3e
       -0.0045295884 -0.12259814 0.07795505 0.16331309
000260 ce 55 e4 3e 72 87 81 3e 67 18 29 ba 69 c1 3f 3e
       0.44596714 0.2529865 -0.00064504746 0.18726124
000270 7b 18 bd bd 12 6a ed bd 5d b5 fa bd 9c fd de 3d
       -0.09233185 -0.11592497 -0.122416236 0.10888216
000280 14 f5 09 3e 97 20 be 3d 24 4e 17 be bf e1 d7 bc
       0.13472396 0.0928356 -0.14775902 -0.026352761
000290 e9 f7 c2 be 5c ff 8a bc 14 bb 9a be 16 22 a4 bb
       -0.38079765 -0.016967468 -0.30220854 -0.005008946
0002a0 78 0c c1 3d 57 43 0a be 11 e6 80 3e 37 98 5b bd
       0.09426206 -0.1350225 0.25175527 -0.05361196
0002b0 75 2f 82 3d 14 46 32 be c5 98 05 3d 5d 3b ec 3d
       0.06356708 -0.17409545 0.032616396 0.1153476
0002c0 47 f9 f5 3c 86 85 52 be 2f 7b 56 3e 70 31 2f 3e
       0.030026091 -0.20558748 0.20945428 0.17108703
0002d0 b0 ea fc 3d 64 6e 30 3e e2 72 04 be 28 74 e2 bd
       0.123494506 0.1722961 -0.1293445 -0.11057311
0002e0 59 8a 5e bd 3f 50 f2 3d 9a f9 81 be 42 de 86 3d
       -0.054331157 0.11831712 -0.25385743 0.06585361
0002f0 2a 01 63 bd f7 2c f9 bb f8 a7 d9 3c 5b f5 a9 be
       -0.055421032 -0.007604237 0.026569352 -0.33195004
000300 45 a0 5c 3e f1 25 b7 bd e3 18 5a be e9 03 8c 3e
       0.21545513 -0.089427836 -0.21298556 0.27346733
000310 f7 16 9d 3d a2 1b 70 3c 15 d9 8b be 38 a8 1e be
       0.07670396 0.014655026 -0.27314058 -0.15493858
000320 9e e4 18 3e 92 47 2a be e0 d5 a4 bd cc 48 40 be
       0.1493096 -0.16628864 -0.08048606 -0.1877777
000330 b8 da 5b 3d 12 09 0a 3d 66 0d c4 3e b7 a3 be bd
       0.053675383 0.033700056 0.38291472 -0.0930857
000340 d2 41 72 be 1d 3f c3 3d 91 8f a4 be 86 83 67 bb
       -0.23657921 0.09533522 -0.32140782 -0.0035326197
000350 59 1e 37 3d d5 63 06 3e 07 87 3b 3e 62 d2 66 3e
       0.044706676 0.1312402 0.18313228 0.22541192
000360 fe 3a 54 bd 8d e4 2b be ae 85 1f 3e 06 20 14 be
       -0.05181407 -0.16786404 0.15578339 -0.14465341
000370 b9 58 17 3e da 08 a5 3c c8 19 f4 3d 9a 1c 63 be
       0.14779939 0.020145822 0.1191898 -0.2217888
000380 0a 1e a5 3d e9 1b d3 bd 26 45 46 3d 39 06 d2 bd
       0.0806237 -0.10308058 0.04840579 -0.10255093
000390 e2 1b 0c be 9a 16 db 3d 0e 4b 07 3e 8f 05 ad be
       -0.13682511 0.1069767 0.13212225 -0.33793303
0003a0 9f 06 3d 3e b2 7d 1d 3e 83 27 9f 3d 56 bb 29 3e
       0.18459557 0.1537998 0.07771208 0.16575369
0003b0 07 3c b7 bc b2 96 c6 3d b8 c3 b2 bd 7b 96 a9 bd
       -0.02236749 0.096967116 -0.08728737 -0.08280655
0003c0 6c bd 96 bc 06 43 a9 bd d4 3e eb bd 85 aa 03 3e
       -0.01840087 -0.08264737 -0.11486593 0.12858017
0003d0 82 a4 9d be ea 8b 40 3e a0 44 51 3e fd 0e 92 3c
       -0.30789572 0.18803373 0.20436335 0.017829413
0003e0 2d 6b bc 3d 4d 3b e5 bd b9 b4 fa 3d 7f 76 bd 3d
       0.0920013 -0.11192951 0.12241501 0.09251117
0003f0 c7 de 54 3e 4f 68 bf be 19 4f b3 3e 8d 3f 8b 3e
       0.20788108 -0.3738427 0.35021284 0.27196923

lstm.bias_ih_l1 f4 [512]
000000 1f f8 0f 3e 3b 76 f1 be fa 51 06 bf e6 49 a2 be
       0.14059494 -0.47160515 -0.52468836 -0.31697005
000010 48 57 ff 3c 21 7b 27 bf e8 49 86 bd f5 86 c6 be
       0.031169549 -0.65422255 -0.06557065 -0.3877484
000020 ba e5 18 be 99 ce 5b be 02 78 67 3d a1 8c 93 be
       -0.14931384 -0.2146553 0.056510933 -0.2881823
000030 e0 63 eb be f8 63 07 bf 9d 13 f6 3d 40 e4 0d bf
       -0.45974636 -0.52886915 0.1201546 -0.55426407
000040 e0 05 d7 3c b1 a2 7c bd ef ed 8b be b8 7b 1b bf
       0.026247919 -0.061678592 -0.27329966 -0.60735655
000050 af 1b 8d be 1f 77 bf be dc 57 ad bd 5a b4 83 be
       -0.27560183 -0.3739557 -0.084640235 -0.25723535
000060 af 9b 35 3d 96 55 c6 be db e1 a4 bd a4 f8 0b 3d
       0.044337925 -0.38737172 -0.08050891 0.03417267
000070 b5 90 aa be 8c 5c 59 3e 8d c6 52 be 98 fc 9b be
       -0.33313528 0.2122671 -0.20583554 -0.3046615
000080 22 df b1 be 44 f6 00 bf 1c 7c 5c be 43 77 d9 be
       -0.3474055 -0.5037577 -0.21531719 -0.42473802
000090 76 03 c3 be 12 1b 5b be 32 c1 b5 be 8d 95 c8 be
       -0.38088578 -0.21397045 -0.3549896 -0.39176598
0000a0 86 5b 4d bf 01 d3 e1 3d 1b 72 85 3d 9b f5 cc be
       -0.8021778 0.11026574 0.065159045 -0.40031132
0000b0 23 e5 34 bf bf 76 fe be d1 95 fb 3e 60 ea f4 be
       -0.70662135 -0.4969997 0.49137738 -0.47835064
0000c0 f6 c9 4a be 0b 4c dc 3b 70 d8 1e bf aa 38 9a 3e
       -0.19803604 0.006722932 -0.6204901 0.30121356
0000d0 98 7a 9e bc 32 24 10 bf 7b 44 05 bf 58 f0 21 3d
       -0.019345567 -0.5630523 -0.5205762 0.03953585
0000e0 4b 8d f1 3d 4b 8a 0f bf 43 c5 b3 3e f6 04 ab 3e
       0.117945276 -0.56070393 0.35111436 0.33402222
0000f0 ef 2e f4 be 20 85 bd bd 0a 07 1f bf d0 37 cf bd
       -0.47692057 -0.09253907 -0.62120116 -0.10118067
000100 24 a2 06 3e b7 be 0c bd 91 e3 fa bd 67 0c 04 bd
       0.13147789 -0.034361567 -0.12250436 -0.03223839
000110 bd 8b f8 be 30 59 89 3d c6 9e 39 be 49 27 3c 3e
       -0.48544112 0.06706464 -0.18126974 0.18374361
000120 ac 70 86 bd 2f e5 be be a0 45 22 bf d3 4c e5 be
       -0.06564459 -0.37284228 -0.6338749 -0.44785175
000130 e3 e0 46 be 9d 31 d7 be 4a 1b cb be 36 22 e2 be
       -0.19421725 -0.4203004 -0.39669257 -0.44166726
000140 af 6e 1f be 71 7a e3 be 48 e1 9c 3c f2 1e 13 3d
       -0.15569566 -0.44429353 0.019150391 0.035918184
000150 06 72 d1 be 74 6d a3 be a1 23 a8 3d 3c 81 bf be
       -0.40907305 -0.31919444 0.08209921 -0.37403286
000160 a2 e3 0f bf be 9f 7a be 93 75 82 be 3f e9 bb be
       -0.56206715 -0.24475 -0.25480327 -0.3670139
000170 cf f2 a6 be f6 9a a4 bc ec ce 24 be 27 73 df be
       -0.32607123 -0.020093422 -0.1609456 -0.43642542
000180 1b b3 70 be c4 35 6d bf da 55 f2 be a8 e4 8f bd
       -0.23505823 -0.92660165 -0.47331125 -0.070260346
000190 9c 96 68 be e5 78 db be 82 6d 04 be de 6d f0 be
       -0.22713703 -0.42865673 -0.12932399 -0.46958822
0001a0 b0 83 6b bd e1 09 cf 3b 9d 3f 1c bf b6 f2 46 3e
       -0.057498634 0.0063183163 -0.61034566 0.19428524
0001b0 ca d0 a5 3e 58 2b 09 bb c6 d0 0d bf db d2 1c bf
       0.32385856 -0.0020930376 -0.5539669 -0.6125924
0001c0 1a 81 6c be 46 08 ea be 73 67 1f bf d0 38 9b be
       -0.23096123 -0.45709437 -0.62267226 -0.30316782
0001d0 c5 34 23 bf 58 0a cd be 83 d2 0c be 62 78 d6 bd
       -0.63752395 -0.40046954 -0.13752179 -0.1047218
0001e0 13 64 a3 be a9 67 16 bf b7 bf 70 bd cd fd d1 be
       -0.31912288 -0.5875192 -0.058776584 -0.41013947
0001f0 3f 95 2a be a4 62 ab be 7f 5c 15 be 11 3f 7b be
       -0.16658495 -0.33473694 -0.14586066 -0.24535777
000200 bb 7c e6 be 6f 3a 0e bf 17 d3 4c be 46 a4 09 be
       -0.45017037 -0.5555791 -0.200024 -0.13441572
000210 60 89 09 bf 00 ae b5 bd 46 69 98 be e0 21 13 bf
       -0.5372524 -0.088710785 -0.29767817 -0.57473564
000220 2c 5d 13 be e7 5f 25 be 88 d3 24 3c e4 24 59 bd
       -0.14391011 -0.16149865 0.010060199 -0.053013697
000230 96 e7 58 bf 46 09 20 bf c0 d2 cf be a8 43 81 be
       -0.8472837 -0.6251415 -0.40590477 -0.2524693
000240 c0 8a 80 be 20 3e a3 be 97 7b 79 bd 84 be d0 be
       -0.25105858 -0.31883335 -0.06090888 -0.40770352
000250 9e dc 0b bf 77 12 cb be ec 6b ac be f2 74 8f be
       -0.5463351 -0.39662525 -0.33676088 -0.2801891
000260 b5 cd 69 bd a1 62 81 be 78 06 ea bd 6b d6 32 bf
       -0.057080943 -0.2527056 -0.11427015 -0.69858426
000270 4a 0d 34 be 29 9a f8 3d 6d 4e 49 be 9d 12 07 bf
       -0.17583194 0.12138779 -0.19658823 -0.52762777
000280 78 4f 58 be 05 0a 18 bf 39 bb f7 be b7 3e 09 bf
       -0.21124065 -0.5939029 -0.48385027 -0.5361132
000290 06 0e 4a bf f2 b6 0c bf 4a 7b ce be eb eb 89 be
       -0.7892765 -0.5496665 -0.40328437 -0.26937804
0002a0 31 39 a6 be 23 05 8f be 8c cc 6b be 63 6b 33 bf
       -0.3246551 -0.27933607 -0.23027247 -0.70085734
0002b0 df 68 0f bf a4 c2 3d be 2d 65 36 be a4 12 18 bf
       -0.56019396 -0.18531281 -0.17812033 -0.59403443
0002c0 e5 89 2b bf 90 e4 78 3e 1d 09 33 bd e1 f7 70 3e
       -0.67007285 0.2430594 -0.043709863 0.23532058
0002d0 6d 94 cb be fe cd 97 be e6 e4 bb be e4 36 52 bf
       -0.39761677 -0.29649347 -0.36698073 -0.82115006
0002e0 85 5f c0 be 08 57 2d bf da 6f d9 bb 3d b2 49 bf
       -0.37572876 -0.67710924 -0.006635648 -0.78787595
0002f0 5f 8d d3 be eb 39 f3 bd 98 2a 97 be 55 37 53 be
       -0.41318795 -0.11876281 -0.29524684 -0.20626576
000300 e0 b5 88 bd f6 8e 04 bf 9f ae bc be 4c c1 04 bf
       -0.06675315 -0.5178064 -0.36851975 -0.5185745
000310 cd d1 4d be 64 79 eb be 7d b6 c6 be 64 d5 33 bd
       -0.20099564 -0.4599105 -0.38811103 -0.043904677
000320 f5 16 cf be 44 51 5f be 35 97 a2 be 7c ff 77 bf
       -0.40447202 -0.21808344 -0.31755987 -0.96874213
000330 33 98 98 be c3 39 06 bf 98 43 0d bf cc 44 49 be
       -0.2980362 -0.5243189 -0.55181265 -0.1965515
000340 e9 cb a2 be 83 4e e9 be 09 11 1c bf 93 7f 2e bc
       -0.31796196 -0.45567712 -0.60963494 -0.010650533
000350 10 c1 e3 be b1 b9 c6 be 2e d4 3a 3e 32 1a 14 bf
       -0.44483232 -0.38813546 0.18245003 -0.5785247
000360 ce b8 0f bf a2 f4 59 be df 43 37 bf 54 6a 2f be
       -0.56141365 -0.21284726 -0.7158794 -0.17130405
000370 da 62 f0 be ad 11 0b bf d9 63 cd bd a2 96 f2 3d
       -0.46950418 -0.54323846 -0.1002881 0.11845137
000380 bf 4b b1 be 00 65 4e be 1d 03 09 bf b0 52 30 bf
       -0.34628102 -0.20155716 -0.53520375 -0.6887617
000390 61 7e 07 bf 01 4f f4 be bb 45 42 be f8 44 5b be
       -0.52927214 -0.47716525 -0.18971913 -0.21413028
0003a0 b2 f1 a3 be 5d 18 21 bf b1 f6 d3 be 5e ec 29 bf
       -0.32020336 -0.629278 -0.41399148 -0.6637629
0003b0 d7 0f 13 bf 54 62 63 be d9 b7 85 be ed ad c1 be
       -0.57446045 -0.22205478 -0.26116827 -0.37828007
0003c0 ac 67 22 bf 7c 22 e6 be 15 2d d4 be 98 fb 2d bf
       -0.6343944 -0.44948184 -0.41440645 -0.67962027
0003d0 6c ca c9 be ff 68 0c bf 0e f0 a9 be a7 5b 35 be
       -0.39412248 -0.5484771 -0.3319096 -0.17710744
0003e0 21 21 f5 bd 08 27 c1 bd 27 08 cb be cb fe 29 bd
       -0.119692095 -0.09431273 -0.39654657 -0.041502755
0003f0 e9 2e 11 bf 60 f0 57 3d 0a fe 17 bf 64 44 4d bf
       -0.56712204 0.052719474 -0.5937201 -0.8018248
